…
lob/42071e92be63221da73a620de5beac0a5c537a9c/src/mlpack/methods/ann/layer/convolution_impl.hpp#L71,\r\nHere, total padding would be of 2 but in the PyTorch implementation, https://github.com/ZFTurbo/MobileNet-v1-Pytorch/blob/e08a77a1b93f7fcb68960766cf5958cee3c1a134/mobilenet_v1.py#L19, could you see if dims match?', 'comment_created': datetime.datetime(2021, 7, 15, 13, 51, 3, tzinfo=datetime.timezone.utc), 'commenter': 'kartikdutt18', 'type': 'User'}, {'comment_id': 670491924, 'comment_body': 'Hey, so as you can see the output dimensions do match. \r\nMlpack\r\n```bash\r\n[INFO ] Convolution: (3, 224, 224) ---> (32, 112, 112)\r\n[INFO ] BatchNorm: (32) ---> (32)\r\n[INFO ] RelU6\r\n[INFO ] Block starts: \r\n[INFO ] Separable convolution: (32, 112, 112) ---> (32, 112, 112)\r\n[INFO ] BatchNorm: (32) ---> (32)\r\n[INFO ] RelU6\r\n[INFO ] Convolution: (32, 112, 112) ---> (64, 112, 112)\r\n[INFO ] BatchNorm: (64) ---> (64)\r\n[INFO ] RelU6\r\n[INFO ] Block starts: \r\n[INFO ] Padding: (64, 112, 112 ---> (64, 113, 113)\r\n[INFO ] Separable convolution: (64, 113, 113) ---> (64, 56, 56)\r\n[INFO ] BatchNorm: (64) ---> (64)\r\n[INFO ] RelU6\r\n[INFO ] Convolution: (64, 56, 56) ---> (128, 56, 56)\r\n[INFO ] BatchNorm: (128) ---> (128)\r\n[INFO ] RelU6\r\n[INFO ] Block starts: \r\n[INFO ] Separable convolution: (128, 56, 56) ---> (128, 56, 56)\r\n[INFO ] BatchNorm: (128) ---> (128)\r\n[INFO ] RelU6\r\n[INFO ] Convolution: (128, 56, 56) ---> (128, 56, 56)\r\n[INFO ] BatchNorm: (128) ---> (128)\r\n[INFO ] RelU6\r\n[INFO ] Block starts: \r\n[INFO ] Padding: (128, 56, 56 ---> (128, 57, 57)\r\n[INFO ] Separable convolution: (128, 57, 57) ---> (128, 28, 28)\r\n[INFO ] BatchNorm: (128) ---> (128)\r\n[INFO ] RelU6\r\n[INFO ] Convolution: (128, 28, 28) ---> (256, 28, 28)\r\n[INFO ] BatchNorm: (256) ---> (256)\r\n[INFO ] RelU6\r\n[INFO ] Block starts: \r\n[INFO ] Separable convolution: (256, 28, 28) ---> (256, 28, 28)\r\n[INFO ] BatchNorm: (256) ---> (256)\r\n[INFO ] RelU6\r\n[INFO ] Convolution: (256, 28, 28) ---> (256, 28, 28)\r\n[INFO ] BatchNorm: (256) ---> (256)\r\n[INFO ] RelU6\r\n[INFO ] Block starts: \r\n[INFO ] Padding: (256, 28, 28 ---> (256, 29, 29)\r\n[INFO ] Separable convolution: (256, 29, 29) ---> (256, 14, 14)\r\n[INFO ] BatchNorm: (256) ---> (256)\r\n[INFO ] RelU6\r\n[INFO ] Convolution: (256, 14, 14) ---> (512, 14, 14)\r\n[INFO ] BatchNorm: (512) ---> (512)\r\n[INFO ] RelU6\r\n[INFO ] Block starts: \r\n[INFO ] Separable convolution: (512, 14, 14) ---> (512, 14, 14)\r\n[INFO ] BatchNorm: (512) ---> (512)\r\n[INFO ] RelU6\r\n[INFO ] Convolution: (512, 14, 14) ---> (512, 14, 14)\r\n[INFO ] BatchNorm: (512) ---> (512)\r\n[INFO ] RelU6\r\n[INFO ] Block starts: \r\n[INFO ] Separable convolution: (512, 14, 14) ---> (512, 14, 14)\r\n[INFO ] BatchNorm: (512) ---> (512)\r\n[INFO ] RelU6\r\n[INFO ] Convolution: (512, 14, 14) ---> (512, 14, 14)\r\n[INFO ] BatchNorm: (512) ---> (512)\r\n[INFO ] RelU6\r\n[INFO ] Block starts: \r\n[INFO ] Separable convolution: (512, 14, 14) ---> (512, 14, 14)\r\n[INFO ] BatchNorm: (512) ---> (512)\r\n[INFO ] RelU6\r\n[INFO ] Convolution: (512, 14, 14) ---> (512, 14, 14)\r\n[INFO ] BatchNorm: (512) ---> (512)\r\n[INFO ] RelU6\r\n[INFO ] Block starts: \r\n[INFO ] Separable convolution: (512, 14, 14) ---> (512, 14, 14)\r\n[INFO ] BatchNorm: (512) ---> (512)\r\n[INFO ] RelU6\r\n[INFO ] Convolution: (512, 14, 14) ---> (512, 14, 14)\r\n[INFO ] BatchNorm: (512) ---> (512)\r\n[INFO ] RelU6\r\n[INFO ] Block starts: \r\n[INFO ] Separable convolution: (512, 14, 14) ---> (512, 14, 14)\r\n[INFO ] BatchNorm: (512) ---> (512)\r\n[INFO ] RelU6\r\n[INFO ] Convolution: (512, 14, 14) ---> (512, 14, 14)\r\n[INFO ] BatchNorm: (512) ---> (512)\r\n[INFO ] RelU6\r\n[INFO ] Block starts: \r\n[INFO ] Padding: (512, 14, 14 ---> (512, 15, 15)\r\n[INFO ] Separable convolution: (512, 15, 15) ---> (512, 7, 7)\r\n[INFO ] BatchNorm: (512) ---> (512)\r\n[INFO ] RelU6\r\n[INFO ] Convolution: (512, 7, 7) ---> (1024, 7, 7)\r\n[INFO ] BatchNorm: (1024) ---> (1024)\r\n[INFO ] RelU6\r\n[INFO ] Block starts: \r\n[INFO ] Separable convolution: (1024, 7, 7) ---> (1024, 7, 7)\r\n[INFO ] BatchNorm: (1024) ---> (1024)\r\n[INFO ] RelU6\r\n[INFO ] Convolution: (1024, 7, 7) ---> (1024, 7, 7)\r\n[INFO ] BatchNorm: (1024) ---> (1024)\r\n[INFO ] RelU6\r\n[INFO ] Mean pooling: (1024, 7, 7) ---> (1024, 1, 1)\r\n[INFO ] Dropout\r\n[INFO ] Convolution: (1024, 1, 1) ---> (1000 , 1, 1)\r\n[INFO ] Softmax\r\n```\r\nPyTorch\r\n```bash\r\n---------------------------------------------------------------\r\n        Layer (type)               Output Shape         Param #\r\n================================================================\r\n     ConstantPad2d-1          [-1, 3, 225, 225]               0\r\n            Conv2d-2         [-1, 32, 112, 112]             864\r\n       BatchNorm2d-3         [-1, 32, 112, 112]              64\r\n             ReLU6-4         [-1, 32, 112, 112]               0\r\n            Conv2d-5         [-1, 32, 112, 112]             288\r\n       BatchNorm2d-6         [-1, 32, 112, 112]              64\r\n             ReLU6-7         [-1, 32, 112, 112]               0\r\n            Conv2d-8         [-1, 64, 112, 112]           2,048\r\n       BatchNorm2d-9         [-1, 64, 112, 112]             128\r\n            ReLU6-10         [-1, 64, 112, 112]               0\r\n    ConstantPad2d-11         [-1, 64, 113, 113]               0\r\n           Conv2d-12           [-1, 64, 56, 56]             576\r\n      BatchNorm2d-13           [-1, 64, 56, 56]             128\r\n            ReLU6-14           [-1, 64, 56, 56]               0\r\n           Conv2d-15          [-1, 128, 56, 56]           8,192\r\n      BatchNorm2d-16          [-1, 128, 56, 56]             256\r\n            ReLU6-17          [-1, 128, 56, 56]               0\r\n           Conv2d-18          [-1, 128, 56, 56]           1,152\r\n      BatchNorm2d-19          [-1, 128, 56, 56]             256\r\n            ReLU6-20          [-1, 128, 56, 56]               0\r\n           Conv2d-21          [-1, 128, 56, 56]          16,384\r\n      BatchNorm2d-22          [-1, 128, 56, 56]             256\r\n            ReLU6-23          [-1, 128, 56, 56]               0\r\n    ConstantPad2d-24          [-1, 128, 57, 57]               0\r\n           Conv2d-25          [-1, 128, 28, 28]           1,152\r\n      BatchNorm2d-26          [-1, 128, 28, 28]             256\r\n            ReLU6-27          [-1, 128, 28, 28]               0\r\n           Conv2d-28          [-1, 256, 28, 28]          32,768\r\n      BatchNorm2d-29          [-1, 256, 28, 28]             512\r\n            ReLU6-30          [-1, 256, 28, 28]               0\r\n           Conv2d-31          [-1, 256, 28, 28]           2,304\r\n      BatchNorm2d-32          [-1, 256, 28, 28]             512\r\n            ReLU6-33          [-1, 256, 28, 28]               0\r\n           Conv2d-34          [-1, 256, 28, 28]          65,536\r\n      BatchNorm2d-35          [-1, 256, 28, 28]             512\r\n            ReLU6-36          [-1, 256, 28, 28]               0\r\n    ConstantPad2d-37          [-1, 256, 29, 29]               0\r\n           Conv2d-38          [-1, 256, 14, 14]           2,304\r\n      BatchNorm2d-39          [-1, 256, 14, 14]             512\r\n            ReLU6-40          [-1, 256, 14, 14]               0\r\n           Conv2d-41          [-1, 512, 14, 14]         131,072\r\n      BatchNorm2d-42          [-1, 512, 14, 14]           1,024\r\n            ReLU6-43          [-1, 512, 14, 14]               0\r\n           Conv2d-44          [-1, 512, 14, 14]           4,608\r\n      BatchNorm2d-45          [-1, 512, 14, 14]           1,024\r\n            ReLU6-46          [-1, 512, 14, 14]               0\r\n           Conv2d-47          [-1, 512, 14, 14]         262,144\r\n      BatchNorm2d-48          [-1, 512, 14, 14]           1,024\r\n            ReLU6-49          [-1, 512, 14, 14]               0\r\n           Conv2d-50          [-1, 512, 14, 14]           4,608\r\n      BatchNorm2d-51          [-1, 512, 14, 14]           1,024\r\n            ReLU6-52          [-1, 512, 14, 14]               0\r\n           Conv2d-53          [-1, 512, 14, 14]         262,144\r\n      BatchNorm2d-54          [-1, 512, 14, 14]           1,024\r\n            ReLU6-55          [-1, 512, 14, 14]               0\r\n           Conv2d-56          [-1, 512, 14, 14]           4,608\r\n      BatchNorm2d-57          [-1, 512, 14, 14]           1,024\r\n            ReLU6-58          [-1, 512, 14, 14]               0\r\n           Conv2d-59          [-1, 512, 14, 14]         262,144\r\n      BatchNorm2d-60          [-1, 512, 14, 14]           1,024\r\n            ReLU6-61          [-1, 512, 14, 14]               0\r\n           Conv2d-62          [-1, 512, 14, 14]           4,608\r\n      BatchNorm2d-63          [-1, 512, 14, 14]           1,024\r\n            ReLU6-64          [-1, 512, 14, 14]               0\r\n           Conv2d-65          [-1, 512, 14, 14]         262,144\r\n      BatchNorm2d-66          [-1, 512, 14, 14]           1,024\r\n            ReLU6-67          [-1, 512, 14, 14]               0\r\n           Conv2d-68          [-1, 512, 14, 14]           4,608\r\n      BatchNorm2d-69          [-1, 512, 14, 14]           1,024\r\n            ReLU6-70          [-1, 512, 14, 14]               0\r\n           Conv2d-71          [-1, 512, 14, 14]         262,144\r\n      BatchNorm2d-72          [-1, 512, 14, 14]           1,024\r\n            ReLU6-73          [-1, 512, 14, 14]               0\r\n    ConstantPad2d-74          [-1, 512, 15, 15]               0\r\n           Conv2d-75            [-1, 512, 7, 7]           4,608\r\n      BatchNorm2d-76            [-1, 512, 7, 7]           1,024\r\n            ReLU6-77            [-1, 512, 7, 7]               0\r\n           Conv2d-78           [-1, 1024, 7, 7]         524,288\r\n      BatchNorm2d-79           [-1, 1024, 7, 7]           2,048\r\n            ReLU6-80           [-1, 1024, 7, 7]               0\r\n           Conv2d-81           [-1, 1024, 7, 7]           9,216\r\n      BatchNorm2d-82           [-1, 1024, 7, 7]           2,048\r\n            ReLU6-83           [-1, 1024, 7, 7]               0\r\n           Conv2d-84           [-1, 1024, 7, 7]       1,048,576\r\n      BatchNorm2d-85           [-1, 1024, 7, 7]           2,048\r\n            ReLU6-86           [-1, 1024, 7, 7]               0\r\n        AvgPool2d-87           [-1, 1024, 1, 1]               0\r\n           Conv2d-88           [-1, 1000, 1, 1]       1,025,000\r\n================================================================\r\n```', 'comment_created': datetime.datetime(2021, 7, 15, 14, 1, 26, tzinfo=datetime.timezone.utc), 'commenter': 'Aakash-kaushik', 'type': 'User'}, {'comment_id': 670798031, 'comment_body': 'Can you add a comment above, that explains why we build against your fork for now.', 'comment_created': datetime.datetime(2021, 7, 15, 20, 
…
